…
:{"colab":{"base_uri":"https://localhost:8080/"},"executionInfo":{"elapsed":11,"status":"ok","timestamp":1707405721001,"user":{"displayName":"Mogambo Khan","userId":"01899185678438163491"},"user_tz":-60},"id":"OpSfu2rR0hRj","outputId":"9f562c8d-3cb9-4048-ccdc-339b5603d96c"},"outputs":[{"output_type":"stream","name":"stdout","text":["Model: \"sequential\"\n","_________________________________________________________________\n"," Layer (type)                Output Shape              Param #   \n","=================================================================\n"," conv1d (Conv1D)             (None, 8190, 16)          112       \n","                                                                 \n"," max_pooling1d (MaxPooling1  (None, 4095, 16)          0         \n"," D)                                                              \n","                                                                 \n"," batch_normalization (Batch  (None, 4095, 16)          64        \n"," Normalization)                                                  \n","                                                                 \n"," conv1d_1 (Conv1D)           (None, 4093, 32)          1568      \n","                                                                 \n"," max_pooling1d_1 (MaxPoolin  (None, 2046, 32)          0         \n"," g1D)                                                            \n","                                                                 \n"," batch_normalization_1 (Bat  (None, 2046, 32)          128       \n"," chNormalization)                                                \n","                                                                 \n"," conv1d_2 (Conv1D)           (None, 2044, 64)          6208      \n","                                                                 \n"," global_max_pooling1d (Glob  (None, 64)                0         \n"," alMaxPooling1D)                                                 \n","                                                                 \n"," batch_normalization_2 (Bat  (None, 64)                256       \n"," chNormalization)                                                \n","                                                                 \n"," dense (Dense)               (None, 256)               16640     \n","                                                                 \n"," dense_1 (Dense)             (None, 256)               65792     \n","                                                                 \n"," dense_2 (Dense)             (None, 10)                2570      \n","                                                                 \n","=================================================================\n","Total params: 93338 (364.60 KB)\n","Trainable params: 93114 (363.73 KB)\n","Non-trainable params: 224 (896.00 Byte)\n","_________________________________________________________________\n"]}],"source":["model.summary()"]},{"cell_type":"code","execut
…
ttps://localhost:8080/"},"id":"dnIMVbK3u1H1","executionInfo":{"status":"ok","timestamp":1707406351429,"user_tz":-60,"elapsed":7,"user":{"displayName":"Mogambo Khan","userId":"01899185678438163491"}},"outputId":"f7f471cd-b679-44f5-fbe0-0263cb589222"},"execution_count":null,"outputs":[{"output_type":"stream","name":"stdout","text":["Model: \"sequential_1\"\n","_________________________________________________________________\n"," Layer (type)                Output Shape              Param #   \n","=================================================================\n"," conv1d_3 (Conv1D)           (None, 8190, 16)          112       \n","                                                                 \n"," max_pooling1d_2 (MaxPoolin  (None, 4095, 16)          0         \n"," g1D)                                                            \n","                                                                 \n"," batch_normalization_3 (Bat  (None, 4095, 16)          64        \n"," chNormalization)                                                \n","                                                                 \n"," conv1d_4 (Conv1D)           (None, 4093, 32)          1568      \n","                                                                 \n"," max_pooling1d_3 (MaxPoolin  (None, 2046, 32)          0         \n"," g1D)                                                            \n","                                                                 \n"," batch_normalization_4 (Bat  (None, 2046, 32)          128       \n"," chNormalization)                                                \n","                                                                 \n"," conv1d_5 (Conv1D)           (None, 2044, 64)          6208      \n","                                                                 \n"," global_max_pooling1d_1 (Gl  (None, 64)                0         \n"," obalMaxPooling1D)                                               \n","                                                                 \n"," batch_normalization_5 (Bat  (None, 64)                256       \n"," chNormalization)                                                \n","                                                                 \n"," dense_3 (Dense)             (None, 256)               16640     \n","                                                                 \n"," dense_4 (Dense)             (None, 256)               65792     \n","                                                                 \n"," dense_5 (Dense)             (None, 20)                5140      \n","                                                                 \n","=================================================================\n","Total params: 95908 (374.64 KB)\n","Trainable params: 95684 (373.77 KB)\n","Non-trainable params: 224 (896.00 Byte)\n","_________________________________________________________________\n"]}]},{"cell_type":"code","execution_count":null,"metadata":{"
…
{"colab":{"base_uri":"https://localhost:8080/"},"executionInfo":{"elapsed":9,"status":"ok","timestamp":1707407980889,"user":{"displayName":"Mogambo Khan","userId":"01899185678438163491"},"user_tz":-60},"id":"URkysyKuQTtO","outputId":"5b723205-cf05-4a66-fbb8-862cfbb91804"},"outputs":[{"output_type":"stream","name":"stdout","text":["Model: \"sequential_2\"\n","_________________________________________________________________\n"," Layer (type)                Output Shape              Param #   \n","=================================================================\n"," conv1d_6 (Conv1D)           (None, 8190, 16)          112       \n","                                                                 \n"," max_pooling1d_4 (MaxPoolin  (None, 4095, 16)          0         \n"," g1D)                                                            \n","                                                                 \n"," batch_normalization_6 (Bat  (None, 4095, 16)          64        \n"," chNormalization)                                                \n","                                                                 \n"," conv1d_7 (Conv1D)           (None, 4093, 32)          1568      \n","                                                                 \n"," max_pooling1d_5 (MaxPoolin  (None, 2046, 32)          0         \n"," g1D)                                                            \n","                                                                 \n"," batch_normalization_7 (Bat  (None, 2046, 32)          128       \n"," chNormalization)                                                \n","                                                                 \n"," conv1d_8 (Conv1D)           (None, 2044, 64)          6208      \n","                                                                 \n"," global_max_pooling1d_2 (Gl  (None, 64)                0         \n"," obalMaxPooling1D)                                               \n","                                                                 \n"," batch_normalization_8 (Bat  (None, 64)                256       \n"," chNormalization)                                                \n","                                                                 \n"," dense_6 (Dense)             (None, 256)               16640     \n","                                                                 \n"," dense_7 (Dense)             (None, 256)               65792     \n","                                                                 \n"," dense_8 (Dense)             (None, 30)                7710      \n","                                                                 \n","=================================================================\n","Total params: 98478 (384.68 KB)\n","Trainable params: 98254 (383.80 KB)\n","Non-trainable params: 224 (896.00 Byte)\n","_________________________________________________________________\n"]}],"source":["model3.summary()"]},{"cell_type":"code","execu
…
colab":{"base_uri":"https://localhost:8080/"},"executionInfo":{"elapsed":314,"status":"ok","timestamp":1707731613028,"user":{"displayName":"Mogambo Khan","userId":"01899185678438163491"},"user_tz":-60},"outputId":"d5badf7b-5774-444a-b551-a00a53070f39","id":"4ffGpKNpt9OL"},"outputs":[{"output_type":"stream","name":"stdout","text":["Model: \"sequential_1\"\n","_________________________________________________________________\n"," Layer (type)                Output Shape              Param #   \n","=================================================================\n"," conv1d_13 (Conv1D)          (None, 8191, 4)           20        \n","                                                                 \n"," max_pooling1d_10 (MaxPooli  (None, 4095, 4)           0         \n"," ng1D)                                                           \n","                                                                 \n"," batch_normalization_13 (Ba  (None, 4095, 4)           16        \n"," tchNormalization)                                               \n","                                                                 \n"," conv1d_14 (Conv1D)          (None, 4094, 8)           72        \n","                                                                 \n"," max_pooling1d_11 (MaxPooli  (None, 2047, 8)           0         \n"," ng1D)                                                           \n","                                                                 \n"," batch_normalization_14 (Ba  (None, 2047, 8)           32        \n"," tchNormalization)                                               \n","                                                                 \n"," conv1d_15 (Conv1D)          (None, 2045, 16)          400       \n","                                                                 \n"," max_pooling1d_12 (MaxPooli  (None, 1022, 16)          0         \n"," ng1D)                                                           \n","                                                                 \n"," batch_normalization_15 (Ba  (None, 1022, 16)          64        \n"," tchNormalization)                                               \n","                                                                 \n"," conv1d_16 (Conv1D)          (None, 1020, 32)          1568      \n","                                                                 \n"," global_max_pooling1d_3 (Gl  (None, 32)                0         \n"," obalMaxPooling1D)                                               \n","                                                                 \n"," batch_normalization_16 (Ba  (None, 32)                128       \n"," tchNormalization)                                               \n","                                                                 \n"," dense_5 (Dense)             (None, 128)               4224      \n","                                                                 \n"," dropout_1 (Dropout)         (None, 128)               0         \n","                                                                 \n"," dense_6 (Dense)             (None, 10)                1290      \n","                                                                 \n","=================================================================\n","Total params: 7814 (30.52 KB)\n","Trainable params: 7694 (30.05 KB)\n","Non-trainable params: 120 (480.00 Byte)\n","_________________________________________________________________\n"]}],"source":["model3.summary()"]},{"cell_type":"code","source":[
…
