…
{"colab":{"base_uri":"https://localhost:8080/"},"executionInfo":{"elapsed":7,"status":"ok","timestamp":1707728951938,"user":{"displayName":"Mogambo Khan","userId":"01899185678438163491"},"user_tz":-60},"id":"OpSfu2rR0hRj","outputId":"415c2e33-e038-4e37-e266-6fdd6b93a547"},"outputs":[{"output_type":"stream","name":"stdout","text":["Model: \"sequential_1\"\n","_________________________________________________________________\n"," Layer (type)                Output Shape              Param #   \n","=================================================================\n"," conv1d_3 (Conv1D)           (None, 8190, 16)          112       \n","                                                                 \n"," max_pooling1d_2 (MaxPoolin  (None, 4095, 16)          0         \n"," g1D)                                                            \n","                                                                 \n"," batch_normalization_3 (Bat  (None, 4095, 16)          64        \n"," chNormalization)                                                \n","                                                                 \n"," conv1d_4 (Conv1D)           (None, 4093, 32)          1568      \n","                                                                 \n"," max_pooling1d_3 (MaxPoolin  (None, 2046, 32)          0         \n"," g1D)                                                            \n","                                                                 \n"," batch_normalization_4 (Bat  (None, 2046, 32)          128       \n"," chNormalization)                                                \n","                                                                 \n"," conv1d_5 (Conv1D)           (None, 2044, 64)          6208      \n","                                                                 \n"," global_max_pooling1d_1 (Gl  (None, 64)                0         \n"," obalMaxPooling1D)                                               \n","                                                                 \n"," batch_normalization_5 (Bat  (None, 64)                256       \n"," chNormalization)                                                \n","                                                                 \n"," dense_3 (Dense)             (None, 256)               16640     \n","                                                                 \n"," dense_4 (Dense)             (None, 256)               65792     \n","                                                                 \n"," dense_5 (Dense)             (None, 30)                7710      \n","                                                                 \n","=================================================================\n","Total params: 98478 (384.68 KB)\n","Trainable params: 98254 (383.80 KB)\n","Non-trainable params: 224 (896.00 Byte)\n","_________________________________________________________________\n"]}],"source":["model.summary()"]},{"cell_type":"code","execut
…
"https://localhost:8080/"},"id":"dnIMVbK3u1H1","executionInfo":{"status":"ok","timestamp":1707752764272,"user_tz":-60,"elapsed":5,"user":{"displayName":"Mogambo Khan","userId":"01899185678438163491"}},"outputId":"496b6988-5eb9-4d0d-95a8-664f2e512a86"},"execution_count":null,"outputs":[{"output_type":"stream","name":"stdout","text":["Model: \"sequential\"\n","_________________________________________________________________\n"," Layer (type)                Output Shape              Param #   \n","=================================================================\n"," conv1d (Conv1D)             (None, 8190, 16)          112       \n","                                                                 \n"," max_pooling1d (MaxPooling1  (None, 4095, 16)          0         \n"," D)                                                              \n","                                                                 \n"," batch_normalization (Batch  (None, 4095, 16)          64        \n"," Normalization)                                                  \n","                                                                 \n"," conv1d_1 (Conv1D)           (None, 4093, 32)          1568      \n","                                                                 \n"," max_pooling1d_1 (MaxPoolin  (None, 2046, 32)          0         \n"," g1D)                                                            \n","                                                                 \n"," batch_normalization_1 (Bat  (None, 2046, 32)          128       \n"," chNormalization)                                                \n","                                                                 \n"," conv1d_2 (Conv1D)           (None, 2044, 64)          6208      \n","                                                                 \n"," global_max_pooling1d (Glob  (None, 64)                0         \n"," alMaxPooling1D)                                                 \n","                                                                 \n"," batch_normalization_2 (Bat  (None, 64)                256       \n"," chNormalization)                                                \n","                                                                 \n"," dense (Dense)               (None, 256)               16640     \n","                                                                 \n"," dense_1 (Dense)             (None, 256)               65792     \n","                                                                 \n"," dense_2 (Dense)             (None, 20)                5140      \n","                                                                 \n","=================================================================\n","Total params: 95908 (374.64 KB)\n","Trainable params: 95684 (373.77 KB)\n","Non-trainable params: 224 (896.00 Byte)\n","_________________________________________________________________\n"]}]},{"cell_type":"code","execution_count":null,"metadata":{"
…
"colab":{"base_uri":"https://localhost:8080/"},"executionInfo":{"elapsed":11,"status":"ok","timestamp":1707753535468,"user":{"displayName":"Mogambo Khan","userId":"01899185678438163491"},"user_tz":-60},"id":"URkysyKuQTtO","outputId":"d6cc35ad-0f01-46a6-c7d2-100188d71e94"},"outputs":[{"output_type":"stream","name":"stdout","text":["Model: \"sequential_1\"\n","_________________________________________________________________\n"," Layer (type)                Output Shape              Param #   \n","=================================================================\n"," conv1d_3 (Conv1D)           (None, 8190, 16)          112       \n","                                                                 \n"," max_pooling1d_2 (MaxPoolin  (None, 4095, 16)          0         \n"," g1D)                                                            \n","                                                                 \n"," batch_normalization_3 (Bat  (None, 4095, 16)          64        \n"," chNormalization)                                                \n","                                                                 \n"," conv1d_4 (Conv1D)           (None, 4093, 32)          1568      \n","                                                                 \n"," max_pooling1d_3 (MaxPoolin  (None, 2046, 32)          0         \n"," g1D)                                                            \n","                                                                 \n"," batch_normalization_4 (Bat  (None, 2046, 32)          128       \n"," chNormalization)                                                \n","                                                                 \n"," conv1d_5 (Conv1D)           (None, 2044, 64)          6208      \n","                                                                 \n"," global_max_pooling1d_1 (Gl  (None, 64)                0         \n"," obalMaxPooling1D)                                               \n","                                                                 \n"," batch_normalization_5 (Bat  (None, 64)                256       \n"," chNormalization)                                                \n","                                                                 \n"," dense_3 (Dense)             (None, 256)               16640     \n","                                                                 \n"," dense_4 (Dense)             (None, 256)               65792     \n","                                                                 \n"," dense_5 (Dense)             (None, 10)                2570      \n","                                                                 \n","=================================================================\n","Total params: 93338 (364.60 KB)\n","Trainable params: 93114 (363.73 KB)\n","Non-trainable params: 224 (896.00 Byte)\n","_________________________________________________________________\n"]}],"source":["model3.summary()"]},{"cell_type":"code","execu
…
